weather_model_fp16.tflite (tflite, 987728 bytes, 108 tensors)

arith.constant f2 [16]
0	0x4226	3.074
1	0xc341	-3.627
2	0x414e	2.652
3	0xc03b	-2.115
4	0x422a	3.082
5	0xbe20	-1.531
6	0x40b3	2.35
7	0x30ef	0.1542
8	0x4201	3.002
9	0x4761	7.38
10	0x41b6	2.855
11	0xbe56	-1.584
12	0x3ffc	1.996
13	0xb5c2	-0.3599
14	0x41f3	2.975
15	0xc4d4	-4.83

arith.constant1 f2 [16, 3, 3, 3]
0	0x2de7	0.0922
1	0x320c	0.189
2	0x2b4c	0.057
3	0xb6a3	-0.4148
4	0xba75	-0.807
5	0xb3a3	-0.2386
6	0x355c	0.335
7	0x3952	0.665
8	0x30a2	0.1448
9	0x2e00	0.09375
10	0x32e8	0.2158
11	0x2bce	0.06097
12	0xb6bd	-0.4211
13	0xba1f	-0.765
14	0xb2f2	-0.217
15	0x3619	0.381
16	0x3955	0.6665
17	0x30bd	0.1481
18	0x9d6e	-0.005302
19	0x21a3	0.01101
20	0x25eb	0.02312
21	0xafe3	-0.1232
22	0xb08b	-0.142
23	0xac07	-0.0629
24	0x2f40	0.1133
25	0x2bd6	0.06122
26	0x293d	0.04092
27	0xb3ae	-0.24
28	0x2a40	0.04883
29	0xb929	-0.645
30	0x377c	0.4678
31	0x3c6f	1.108
32	0x3978	0.6836
33	0x3e8a	1.635
34	0x3fc9	1.946
35	0x3d44	1.316
36	0xada1	-0.08795
37	0x30bb	0.1478
38	0xb08b	-0.142
39	0xaf46	-0.11365
40	0xb64b	-0.3933
41	0x3321	0.2228
42	0x3875	0.557
43	0x2aa9	0.05203
44	0x30c2	0.1487
45	0x2871	0.0347
46	0x34bd	0.2961
47	0xb4ef	-0.3083
48	0x2ae1	0.05374
49	0x343d	0.265
50	0x2b07	0.0549
51	0x3235	0.194
52	0x33cc	0.2437
53	0x3259	0.1984
54	0xb540	-0.3281
55	0xb88b	-0.568
56	0xb09d	-0.1442
57	0xb760	-0.461
58	0xbac7	-0.847
59	0xb2f4	-0.2173
60	0xb15a	-0.1672
61	0xb5ad	-0.3547
62	0xade1	-0.09186
63	0x2f45	0.1136
64	0x35ae	0.355
65	0x2dc5	0.09015
66	0x2f43	0.11346
67	0x3679	0.4045
68	0x2ddd	0.0916
69	0x2e08	0.09424
70	0x3263	0.1996
71	0x2b14	0.0553
72	0x333e	0.2263
73	0x35f1	0.3713
74	0x2ed2	0.10657
75	0x3559	0.3342
76	0x3875	0.557
77	0x310e	0.158
78	0x31e6	0.1843
79	0x30b0	0.1465
80	0x2c23	0.06464
81	0x8000	-0.0
82	0x8000	-0.0
83	0x8000	-0.0
84	0x8000	-0.0
85	0x8000	-0.0
86	0x8000	-0.0
87	0x8000	-0.0
88	0x8000	-0.0
89	0x8000	-0.0
90	0x8000	-0.0
91	0x8000	-0.0
92	0x8000	-0.0
93	0x8000	-0.0
94	0x8000	-0.0
95	0x8000	-0.0
96	0x8000	-0.0
97	0x8000	-0.0
98	0x8000	-0.0
99	0x8000	-0.0
100	0x8000	-0.0
101	0x8000	-0.0
102	0x8000	-0.0
103	0x8000	-0.0
104	0x8000	-0.0
105	0x8000	-0.0
106	0x8000	-0.0
107	0x8000	-0.0
108	0x356a	0.3384
109	0x3a04	0.752
110	0x3222	0.1917
111	0xb521	-0.3206
112	0xb8f9	-0.6216
113	0xb0f1	-0.1544
114	0x2649	0.02455
115	0x2b4a	0.05695
116	0xa30c	-0.01376
117	0x3768	0.463
118	0x3ae9	0.864
119	0x32b3	0.2094
120	0xb5d7	-0.365
121	0xb93c	-0.6543
122	0xb128	-0.1611
123	0x2837	0.03293
124	0x2ddc	0.09155
125	0x97a4	-0.001865
126	0x31f9	0.1866
127	0x30f5	0.1549
128	0x2d0d	0.0789
129	0xaf5b	-0.1149
130	0xafb2	-0.12024
131	0xa8a7	-0.03635
132	0xa59a	-0.02188
133	0xa541	-0.02052
134	0x9c90	-0.004456
135	0x0000	0.0
136	0x8000	-0.0
137	0x8000	-0.0
138	0x0000	0.0
139	0x0000	0.0
140	0x8000	-0.0
141	0x0000	0.0
142	0x8000	-0.0
143	0x8000	-0.0
144	0x0000	0.0
145	0x8000	-0.0
146	0x8000	-0.0
147	0x0000	0.0
148	0x0000	0.0
149	0x0000	0.0
150	0x0000	0.0
151	0x0000	0.0
152	0x8000	-0.0
153	0x0000	0.0
154	0x0000	0.0
155	0x8000	-0.0
156	0x0000	0.0
157	0x0000	0.0
158	0x0000	0.0
159	0x0000	0.0
160	0x0000	0.0
161	0x8000	-0.0
162	0x2cae	0.0731
163	0xa5ce	-0.02267
164	0xabea	-0.06183
165	0x3472	0.2778
166	0xaf08	-0.10986
167	0xb1c7	-0.1805
168	0x33ec	0.2476
169	0xac2f	-0.06537
170	0xb222	-0.1917
171	0x3315	0.2213
172	0xa946	-0.0412
173	0xb216	-0.1902
174	0x36ff	0.4373
175	0xb0d1	-0.1505
176	0xb4c4	-0.2979
177	0x32cd	0.2125
178	0xaaa6	-0.05194
179	0xb0fa	-0.1555
180	0x32b3	0.2094
181	0xa6f5	-0.02718
182	0xb238	-0.1943
183	0x3310	0.2207
184	0xa9d1	-0.04544
185	0xb18c	-0.1733
186	0xabcf	-0.061
187	0x29a7	0.04416
188	0x265b	0.02483
189	0x0000	0.0
190	0x8000	-0.0
191	0x8000	-0.0
192	0x0000	0.0
193	0x8000	-0.0
194	0x8000	-0.0
195	0x0000	0.0
196	0x8000	-0.0
197	0x8000	-0.0
198	0x0000	0.0
199	0x8000	-0.0
200	0x8000	-0.0
201	0x0000	0.0
202	0x8000	-0.0
203	0x8000	-0.0
204	0x0000	0.0
205	0x8000	-0.0
206	0x8000	-0.0
207	0x0000	0.0
208	0x8000	-0.0
209	0x8000	-0.0
210	0x0000	0.0
211	0x8000	-0.0
212	0x8000	-0.0
213	0x0000	0.0
214	0x8000	-0.0
215	0x8000	-0.0
216	0xabbe	-0.0605
217	0xacf8	-0.07764
218	0xa26d	-0.01255
219	0xa4b4	-0.01837
220	0xaa67	-0.05002
221	0xaa4f	-0.0493
222	0x28c7	0.03732
223	0xad0b	-0.0788
224	0x2581	0.0215
225	0xb418	-0.2559
226	0xb68a	-0.4087
227	0xb19b	-0.1752
228	0xb42d	-0.261
229	0xb80b	-0.5054
230	0xb14b	-0.1654
231	0xa5a2	-0.022
232	0xaebf	-0.1054
233	0xa961	-0.04202
234	0xb15d	-0.1676
235	0xb1d8	-0.1826
236	0xa850	-0.0337
237	0xb002	-0.1252
238	0xae38	-0.09717
239	0xa530	-0.02026
240	0x291d	0.03995
241	0x26cb	0.02654
242	0x23eb	0.015465
243	0xbbba	-0.966
244	0x3eb3	1.675
245	0x3468	0.2754
246	0xb6dc	-0.4287
247	0x3e3f	1.562
248	0xba98	-0.824
249	0x3c83	1.128
250	0xb8ec	-0.615
251	0xb713	-0.4421
252	0xb583	-0.3445
253	0x36c3	0.4226
254	0x300e	0.1267
255	0x2afe	0.05463

arith.constant3 f2 [4]
0	0x1efc	0.00682
1	0x2216	0.01189
2	0xa210	-0.01184
3	0x2006	0.00786

arith.constant4 f2 [4, 64]
0	0xa7b1	-0.03004
1	0x3443	0.2664
2	0x2bb9	0.06033
3	0x2f6a	0.11584
4	0xb38c	-0.2358
5	0x340e	0.2534
6	0x2c72	0.06946
7	0x341e	0.2573
8	0x3211	0.1896
9	0x29db	0.04575
10	0x30c4	0.1489
11	0x2b8d	0.059
12	0xaa4a	-0.04913
13	0x335b	0.2299
14	0x2c8d	0.0711
15	0x34ac	0.292
16	0x30ed	0.1539
17	0xb079	-0.1398
18	0x9edc	-0.0067
19	0x28d6	0.03778
20	0xad49	-0.0826
21	0x2ae6	0.0539
22	0xa91e	-0.03998
23	0xb2ff	-0.2186
24	0xb0db	-0.1517
25	0x32b5	0.2096
26	0x3204	0.188
27	0xb2e2	-0.2151
28	0xb1ac	-0.1772
29	0x3144	0.1646
30	0xaffc	-0.12476
31	0xa82b	-0.03256
32	0xb438	-0.2637
33	0xb47c	-0.2803
34	0x32fb	0.2181
35	0xa890	-0.03564
36	0xb14d	-0.1656
37	0x2eb5	0.1048
38	0xac85	-0.0706
39	0xb3bf	-0.2421
40	0x3319	0.2218
41	0x282d	0.03262
42	0xa08a	-0.008865
43	0x2982	0.04303
44	0x323f	0.1952
45	0xb48c	-0.2842
46	0xacb0	-0.07324
47	0xb2d7	-0.2137
48	0xaf1c	-0.1111
49	0xa3cd	-0.015236
50	0x2d08	0.0786
51	0x23e0	0.01538
52	0xb474	-0.2783
53	0xb46b	-0.2761
54	0xb239	-0.1945
55	0x335e	0.2302
56	0x3377	0.2333
57	0x29b6	0.04462
58	0x3103	0.1566
59	0x2dd0	0.0908
60	0xb050	-0.1348
61	0xb2c0	-0.2109
62	0xb30a	-0.22
63	0xb459	-0.2717
64	0x3310	0.2207
65	0x3254	0.1978
66	0x25d0	0.0227
67	0xa76f	-0.02904
68	0xb223	-0.1918
69	0xb02f	-0.1307
70	0xb217	-0.1903
71	0x2876	0.03485
72	0xb248	-0.1963
73	0xb0e3	-0.1527
74	0xa935	-0.04068
75	0xb2ee	-0.2166
76	0x3426	0.2593
77	0x2821	0.03226
78	0xb262	-0.1995
79	0xb327	-0.2235
80	0xb44d	-0.2688
81	0xb447	-0.2673
82	0xa5bf	-0.02245
83	0xb021	-0.129
84	0xacc7	-0.07465
85	0xb1c1	-0.1798
86	0xb357	-0.2294
87	0x2fa6	0.1195
88	0x3123	0.1605
89	0x1900	0.002441
90	0xaa13	-0.04745
91	0xb331	-0.2247
92	0x322e	0.1931
93	0x2e5a	0.09924
94	0xacb1	-0.0733
95	0x27f1	0.03102
96	0xb43d	-0.265
97	0xb21c	-0.1909
98	0xade0	-0.0918
99	0x2a40	0.04883
100	0x335e	0.2302
101	0x2dce	0.0907
102	0xb45b	-0.2722
103	0x2ecd	0.10626
104	0xad54	-0.08325
105	0x346d	0.2766
106	0xa408	-0.01575
107	0x2f69	0.1158
108	0x316b	0.1693
109	0x2e7c	0.1013
110	0xb067	-0.1376
111	0x9804	-0.00196
112	0xb33b	-0.226
113	0x3470	0.2773
114	0xa5c2	-0.02249
115	0x318a	0.1731
116	0x302a	0.1301
117	0xb1c8	-0.1807
118	0xb28c	-0.2046
119	0xb332	-0.2249
120	0xb0cd	-0.15
121	0xb26f	-0.201
122	0x342e	0.2612
123	0x2174	0.01065
124	0xb340	-0.2266
125	0xab04	-0.0548
126	0xb186	-0.1726
127	0x2ab8	0.0525
128	0x33fc	0.2495
129	0xb009	-0.1261
130	0xb340	-0.2266
131	0x307e	0.1404
132	0xb14f	-0.1659
133	0xa602	-0.02347
134	0x2e9c	0.1033
135	0x2c68	0.06885
136	0xadf8	-0.09326
137	0x2d08	0.0786
138	0xb0ce	-0.1501
139	0xb4cb	-0.2996
140	0xb1da	-0.1829
141	0xa6f0	-0.0271
142	0x2cbe	0.0741
143	0xb42c	-0.2607
144	0x322b	0.1927
145	0xb022	-0.1292
146	0x2fb9	0.12067
147	0x33df	0.246
148	0x314a	0.1653
149	0x3095	0.1432
150	0x2ec2	0.1056
151	0xab64	-0.05774
152	0x2f4e	0.11414
153	0xb245	-0.1959
154	0x344c	0.2686
155	0x304e	0.1345
156	0xa68a	-0.02554
157	0xad81	-0.086
158	0x2bf0	0.062
159	0xb117	-0.159
160	0xab85	-0.05875
161	0x2894	0.03577
162	0xb3fb	-0.2494
163	0x32cc	0.2124
164	0x344c	0.2686
165	0x32e1	0.215
166	0xa887	-0.03537
167	0x321c	0.1909
168	0xa4cb	-0.01872
169	0x292a	0.04034
170	0xb4a3	-0.2898
171	0xb15e	-0.1677
172	0x32a5	0.2076
173	0x308a	0.1418
174	0x2e5e	0.0995
175	0x3493	0.286
176	0x305a	0.136
177	0x33fc	0.2495
178	0x32d4	0.2134
179	0x2999	0.04373
180	0x3436	0.2632
181	0x331c	0.2222
182	0x25ae	0.02219
183	0x33ba	0.2415
184	0xb159	-0.1671
185	0xb399	-0.2374
186	0xb44a	-0.268
187	0xa7b5	-0.0301
188	0xb268	-0.2002
189	0x3003	0.1254
190	0xaf50	-0.11426
191	0x31d2	0.1819
192	0xb335	-0.2252
193	0x2296	0.01286
194	0xb493	-0.286
195	0x33a1	0.2384
196	0x30c4	0.1489
197	0xa9e8	-0.04614
198	0xb0eb	-0.1537
199	0x2876	0.03485
200	0x31d5	0.1823
201	0x2cfb	0.0778
202	0x2d06	0.0785
203	0x349d	0.2883
204	0xb34c	-0.228
205	0x3242	0.1956
206	0x3484	0.2822
207	0x3271	0.2013
208	0xa67c	-0.02533
209	0xae8d	-0.10236
210	0xaeff	-0.1093
211	0xacdd	-0.076
212	0x3486	0.2827
213	0xaec2	-0.1056
214	0x3434	0.2627
215	0xada0	-0.0879
216	0xaeaa	-0.1041
217	0x2e47	0.0981
218	0x3432	0.2622
219	0xafc3	-0.1213
220	0x325a	0.1985
221	0xb48b	-0.284
222	0x2610	0.02368
223	0x2f6d	0.116
224	0xb2e1	-0.215
225	0xb05e	-0.1365
226	0xb1da	-0.1829
227	0xb0d7	-0.1512
228	0x2d44	0.0823
229	0x20cb	0.00936
230	0xb138	-0.1631
231	0x2f07	0.1098
232	0xb44a	-0.268
233	0xaf8e	-0.11804
234	0x3091	0.1427
235	0x3352	0.2288
236	0xb204	-0.188
237	0xb37b	-0.2338
238	0xaf82	-0.1173
239	0xb129	-0.1613
240	0xb2dc	-0.2144
241	0xb3cc	-0.2437
242	0xb310	-0.2207
243	0xa843	-0.0333
244	0xb383	-0.2347
245	0x2ea1	0.1036
246	0x25e7	0.02306
247	0x9e15	-0.00594
248	0x3473	0.278
249	0xa195	-0.0109
250	0x2eb9	0.10504
251	0xabf4	-0.06213
252	0x3442	0.266
253	0x2f4f	0.1142
254	0x34b2	0.2935
255	0xb320	-0.2227

arith.constant5 f2 [8, 1, 1, 16]
0	0xb959	-0.6685
1	0xb326	-0.2234
2	0xbc30	-1.047
3	0x0000	0.0
4	0xb896	-0.573
5	0x150f	0.001235
6	0xc73e	-7.242
7	0x0000	0.0
8	0x3c09	1.009
9	0x3fba	1.932
10	0x3d19	1.274
11	0x13e0	0.0009613
12	0x2cd4	0.07544
13	0x8000	-0.0
14	0xbdad	-1.419
15	0x3881	0.563
16	0xc064	-2.195
17	0xbaa8	-0.832
18	0xc6cb	-6.793
19	0x0000	0.0
20	0x37e5	0.4934
21	0xa253	-0.01235
22	0x3bee	0.991
23	0x0000	0.0
24	0xb3e4	-0.2466
25	0xb83c	-0.5293
26	0xabb4	-0.06018
27	0xa10b	-0.00985
28	0xbd79	-1.368
29	0x0000	0.0
30	0x3586	0.3452
31	0x27f4	0.03107
32	0x33c6	0.2429
33	0x343d	0.265
34	0x35da	0.3657
35	0x0000	0.0
36	0x40da	2.426
37	0xa1c9	-0.0113
38	0x3bae	0.96
39	0x8000	-0.0
40	0xb442	-0.266
41	0xba87	-0.816
42	0x459c	5.61
43	0xa0a3	-0.009056
44	0x31d8	0.1826
45	0x8000	-0.0
46	0x4523	5.137
47	0xae0b	-0.0944
48	0xbc5a	-1.088
49	0x3617	0.3806
50	0x3567	0.3376
51	0x0000	0.0
52	0x4107	2.514
53	0x1468	0.001076
54	0xc0cb	-2.396
55	0x0000	0.0
56	0xbaf7	-0.8706
57	0x3e68	1.602
58	0xc455	-4.332
59	0x1319	0.0008664
60	0x2f11	0.1104
61	0x0000	0.0
62	0x45bb	5.73
63	0xb6a8	-0.416
64	0x38a3	0.5796
65	0xa887	-0.03537
66	0xbc31	-1.048
67	0x8000	-0.0
68	0xc8d0	-9.625
69	0x26fd	0.0273
70	0x2bc6	0.06073
71	0x0000	0.0
72	0x33ae	0.24
73	0xbca9	-1.165
74	0xaf05	-0.1097
75	0x2596	0.02182
76	0x35aa	0.354
77	0x0000	0.0
78	0x43c5	3.885
79	0x37c9	0.4866
80	0x48db	9.71
81	0x28d8	0.03784
82	0xc4bd	-4.74
83	0x8000	-0.0
84	0x39b4	0.713
85	0x1ebb	0.006573
86	0xb5e2	-0.3677
87	0x8000	-0.0
88	0xc131	-2.596
89	0x38ef	0.6167
90	0xb593	-0.3484
91	0x1d57	0.005215
92	0x4949	10.57
93	0x8000	-0.0
94	0x2fee	0.1239
95	0xb8a9	-0.5825
96	0x4903	10.02
97	0xb80f	-0.5073
98	0x3d9e	1.404
99	0x0000	0.0
100	0x3c88	1.133
101	0x2395	0.01481
102	0xb714	-0.4424
103	0x0000	0.0
104	0x41b0	2.844
105	0x3d9b	1.401
106	0xadd5	-0.0911
107	0x220a	0.011795
108	0xc88a	-9.08
109	0x0000	0.0
110	0x35a5	0.3528
111	0x391b	0.638
112	0x385b	0.5444
113	0x3f5d	1.841
114	0x3c15	1.0205
115	0x8000	-0.0
116	0xb8bd	-0.5923
117	0x1999	0.002733
118	0xb627	-0.3845
119	0x0000	0.0
120	0xc57d	-5.49
121	0x3005	0.1256
122	0x34a5	0.2903
123	0x1882	0.002201
124	0xbc52	-1.08
125	0x8000	-0.0
126	0xb5ae	-0.355
127	0xc1a1	-2.814

arith.constant6 f2 [48, 1, 1, 8]
0	0x3645	0.3918
1	0xae19	-0.0953
2	0xbdb1	-1.423
3	0xbe65	-1.599
4	0x9d75	-0.00533
5	0xb23a	-0.1946
6	0xb503	-0.3132
7	0x3536	0.3257
8	0xa542	-0.02054
9	0xac32	-0.06555
10	0x1ae9	0.003374
11	0x21e1	0.01148
12	0xa90b	-0.0394
13	0xb136	-0.1628
14	0x2d56	0.0834
15	0x2169	0.01057
16	0xb05f	-0.1366
17	0x26e3	0.0269
18	0x2d2d	0.0809
19	0xaf78	-0.1167
20	0x1031	0.0005116
21	0x9ee6	-0.006737
22	0xa1a8	-0.01105
23	0xa47c	-0.01752
24	0x1631	0.001512
25	0xa414	-0.01593
26	0xa592	-0.02176
27	0xa819	-0.032
28	0x1975	0.002665
29	0x2b70	0.0581
30	0x2b50	0.05713
31	0x2333	0.01406
32	0x28c3	0.0372
33	0x1cdd	0.00475
34	0x2e83	0.10175
35	0xadd5	-0.0911
36	0x157f	0.001342
37	0x995d	-0.002619
38	0x9b6e	-0.003628
39	0x246b	0.01726
40	0x328f	0.205
41	0x3e14	1.52
42	0xac1d	-0.0643
43	0xab2a	-0.05597
44	0x2e01	0.0938
45	0x3436	0.2632
46	0x310e	0.158
47	0xb3a3	-0.2386
48	0x24c4	0.01862
49	0xa536	-0.02036
50	0xa39b	-0.014854
51	0xa86c	-0.03455
52	0x24ec	0.01923
53	0x15ac	0.001385
54	0x2234	0.012115
55	0xb3d6	-0.2449
56	0xad01	-0.0782
57	0x20b6	0.0092
58	0x981a	-0.002003
59	0xa4ad	-0.01826
60	0x1606	0.001471
61	0x8b72	-0.0002272
62	0x9736	-0.0017605
63	0xa1f2	-0.01161
64	0xa892	-0.0357
65	0xb243	-0.1957
66	0xad97	-0.08734
67	0xb086	-0.1414
68	0x3216	0.1902
69	0x34d6	0.3022
70	0x36a9	0.4163
71	0x2983	0.04306
72	0xa503	-0.01958
73	0xacfe	-0.078
74	0x9e5a	-0.006203
75	0x2173	0.01064
76	0x1db0	0.005554
77	0xae2c	-0.09644
78	0x2d44	0.0823
79	0x2409	0.01576
80	0x1f59	0.007175
81	0x9bd0	-0.003815
82	0xa94a	-0.04132
83	0xaca5	-0.0726
84	0x1b5c	0.003593
85	0x9a96	-0.003216
86	0x842f	-6.384e-05
87	0x2326	0.01396
88	0x312a	0.1614
89	0x2954	0.04163
90	0xb927	-0.644
91	0xb9c2	-0.7197
92	0xb4c2	-0.2974
93	0xb0db	-0.1517
94	0xb31b	-0.222
95	0x316a	0.1692
96	0x33cf	0.244
97	0xa152	-0.01039
98	0xa959	-0.04178
99	0x2ff5	0.1243
100	0x1bd2	0.003819
101	0x228c	0.01279
102	0x2338	0.0141
103	0x2cde	0.07605
104	0x2d67	0.0844
105	0x353c	0.3271
106	0x3028	0.1299
107	0x3373	0.2328
108	0xbc72	-1.111
109	0xb7b6	-0.482
110	0xb87c	-0.5605
111	0xb220	-0.1914
112	0xa54a	-0.02066
113	0xa6d5	-0.02669
114	0x2b8b	0.05893
115	0x2c25	0.06476
116	0x2936	0.0407
117	0x2855	0.03384
118	0x2d06	0.0785
119	0x9942	-0.002567
120	0xb64b	-0.3933
121	0xaca4	-0.0725
122	0xaeb2	-0.1046
123	0xb4a7	-0.2908
124	0x9840	-0.002075
125	0xa44f	-0.01683
126	0x2a0a	0.04718
127	0xbd10	-1.266
128	0x2a15	0.04752
129	0x1f59	0.007175
130	0xb15f	-0.1678
131	0xb1c3	-0.18
132	0xaca7	-0.0727
133	0xa89d	-0.03604
134	0xaa7c	-0.05066
135	0x264c	0.0246
136	0x23f7	0.01556
137	0xacd2	-0.0753
138	0x20c5	0.009315
139	0x0a51	0.0001928
140	0xa451	-0.01686
141	0x2cc2	0.07434
142	0xadf3	-0.09296
143	0xa061	-0.00855
144	0xa95b	-0.04184
145	0x1cde	0.004753
146	0xacd1	-0.07526
147	0x2b30	0.05615
148	0x8fa5	-0.0004666
149	0x1c60	0.004272
150	0x1a53	0.003088
151	0xa0ad	-0.00913
152	0x2c9b	0.07196
153	0x1cb4	0.004593
154	0xaa77	-0.0505
155	0xa98a	-0.04327
156	0xa81c	-0.0321
157	0xaff6	-0.1244
158	0xb033	-0.1312
159	0xacdc	-0.0759
160	0x2034	0.00821
161	0x2415	0.01595
162	0xa29e	-0.012924
163	0x9f59	-0.007175
164	0x2f74	0.11646
165	0xaac3	-0.05283
166	0xaafe	-0.05463
167	0x1e36	0.006065
168	0x2378	0.01459
169	0x2090	0.00891
170	0xa4ee	-0.01926
171	0xa431	-0.01637
172	0x3038	0.1318
173	0xabbf	-0.06052
174	0xaca5	-0.0726
175	0x1f76	0.007286
176	0xbde7	-1.476
177	0x346f	0.277
178	0x3e07	1.507
179	0xbe74	-1.613
180	0x9886	-0.002209
181	0xb133	-0.1625
182	0xad10	-0.0791
183	0xa8e8	-0.03833
184	0xae0c	-0.0945
185	0xb636	-0.3882
186	0xb2f6	-0.2175
187	0xb643	-0.3914
188	0x385c	0.545
189	0x39de	0.7334
190	0x3b2e	0.8975
191	0x3312	0.221
192	0xa1cd	-0.01133
193	0x9b14	-0.003456
194	0x236e	0.01451
195	0x21dd	0.01145
196	0xaf64	-0.1155
197	0x29a7	0.04416
198	0x2a05	0.04703
199	0x9fd1	-0.007633
200	0xa568	-0.02112
201	0x2805	0.0314
202	0x235c	0.01437
203	0x2323	0.01394
204	0x16da	0.001673
205	0x9815	-0.001993
206	0x9d04	-0.004898
207	0x32bc	0.2104
208	0x27b5	0.0301
209	0x29c6	0.0451
210	0xa2b2	-0.01308
211	0xa7eb	-0.03093
212	0x1e8c	0.006393
213	0xa5cc	-0.02264
214	0x28ba	0.03693
215	0xb13e	-0.1638
216	0x3195	0.1744
217	0xa5b8	-0.02234
218	0x1d13	0.004955
219	0x282a	0.03253
220	0x1b66	0.003613
221	0x1c6b	0.004314
222	0x20a0	0.00903
223	0x2502	0.01956
224	0xa791	-0.02956
225	0x1a4a	0.00307
226	0x2d02	0.07825
227	0x3082	0.1409
228	0xb385	-0.235
229	0xb4df	-0.3044
230	0xb43a	-0.2642
231	0xaa4a	-0.04913
232	0x25bf	0.02245
233	0xa325	-0.013954
234	0xa90b	-0.0394
235	0xaa11	-0.0474
236	0xa1ca	-0.01131
237	0xa3e1	-0.01539
238	0xa1d0	-0.01135
239	0xa9f4	-0.0465
240	0x3c55	1.083
241	0xb385	-0.235
242	0x3ab1	0.8364
243	0xba01	-0.7505
244	0x00b3	1.067e-05
245	0xaa2a	-0.04816
246	0x272d	0.02803
247	0xba77	-0.808
248	0x9a83	-0.00318
249	0x2d69	0.08453
250	0xa4ae	-0.01828
251	0x1551	0.001298
252	0x19c4	0.002815
253	0xb203	-0.1879
254	0x325a	0.1985
255	0x26b6	0.02621

arith.constant7 f2 [8, 1, 1, 48]
0	0xb7a6	-0.478
1	0x2989	0.04324
2	0x3e1d	1.528
3	0xb1a1	-0.1759
4	0x37ef	0.4958
5	0xb44b	-0.2683
6	0xb2de	-0.2146
7	0x44b5	4.707
8	0x2d9a	0.0875
9	0xac71	-0.0694
10	0x3d96	1.396
11	0xb18c	-0.1733
12	0xb476	-0.2788
13	0xb324	-0.2231
14	0xa11c	-0.00998
15	0x4418	4.094
16	0xadcb	-0.0905
17	0xae52	-0.09875
18	0x3857	0.5425
19	0xaeb5	-0.1048
20	0x2cea	0.0768
21	0xaffe	-0.1249
22	0xc134	-2.602
23	0x2f34	0.11255
24	0x1fef	0.007748
25	0x367f	0.406
26	0x253f	0.0205
27	0xc433	-4.2
28	0x300d	0.1266
29	0xb0f5	-0.1549
30	0xbe1c	-1.527
31	0xa4ad	-0.01826
32	0xaf39	-0.11285
33	0xb02d	-0.1305
34	0xaaa1	-0.0518
35	0xa629	-0.02406
36	0xaa31	-0.04837
37	0x2637	0.02428
38	0x2a54	0.04944
39	0xbf3c	-1.809
40	0x3323	0.223
41	0x2675	0.02522
42	0xb173	-0.1703
43	0xa6b4	-0.02618
44	0xa4f8	-0.01941
45	0x2c0f	0.0634
46	0x2da2	0.088
47	0x3d79	1.368
48	0x3b2b	0.896
49	0x39e6	0.7373
50	0x2d61	0.08405
51	0xc487	-4.527
52	0x3bb5	0.9634
53	0xb50e	-0.316
54	0x3b77	0.933
55	0xac75	-0.06964
56	0x3fb0	1.922
57	0x332c	0.2241
58	0x38d4	0.6035
59	0xb963	-0.6733
60	0xbc0b	-1.011
61	0x3d14	1.27
62	0x3551	0.3323
63	0xadf1	-0.09283
64	0x3c61	1.095
65	0x3ce0	1.219
66	0xbc77	-1.116
67	0xbb98	-0.949
68	0x3954	0.666
69	0xc440	-4.25
70	0xb57a	-0.3423
71	0x3d3c	1.309
72	0x3a54	0.791
73	0xb682	-0.4067
74	0xba76	-0.8076
75	0xaf30	-0.1123
76	0x361a	0.3813
77	0xbd1a	-1.275
78	0x39e8	0.7383
79	0x3399	0.2374
80	0xbc40	-1.0625
81	0x3e42	1.564
82	0x3769	0.4631
83	0x3d6c	1.355
84	0xc0fe	-2.496
85	0x3dc9	1.446
86	0xba4f	-0.7886
87	0xb533	-0.325
88	0xa4e2	-0.01907
89	0x34e0	0.3047
90	0x380f	0.5073
91	0x2bf3	0.0621
92	0x3b9a	0.95
93	0x3429	0.26
94	0x40b1	2.346
95	0x322b	0.1927
96	0x3651	0.3948
97	0x4086	2.262
98	0x3aa1	0.8286
99	0x427b	3.24
100	0x403e	2.121
101	0xa039	-0.00825
102	0x2fad	0.11993
103	0xb5af	-0.3552
104	0x3e32	1.549
105	0xbec5	-1.692
106	0xb76f	-0.4646
107	0x3601	0.3752
108	0x3c9f	1.155
109	0xb598	-0.3496
110	0xbcc5	-1.192
111	0x3081	0.1407
112	0xbd6b	-1.3545
113	0x4089	2.268
114	0xc018	-2.047
115	0x3e5e	1.592
116	0x4268	3.203
117	0xbcd6	-1.209
118	0xb7fc	-0.499
119	0x23c6	0.01518
120	0x4364	3.695
121	0x357c	0.3428
122	0xbf2d	-1.794
123	0xb837	-0.527
124	0x4084	2.258
125	0x4059	2.174
126	0x3f51	1.829
127	0xb930	-0.6484
128	0x3ebf	1.687
129	0x3b89	0.942
130	0xaa93	-0.05136
131	0x852f	-7.91e-05
132	0x352c	0.3232
133	0x4312	3.535
134	0xbef7	-1.741
135	0xb70e	-0.441
136	0x3480	0.2812
137	0x408b	2.271
138	0xb896	-0.573
139	0x3dd5	1.458
140	0x3fe4	1.973
141	0x3d2b	1.292
142	0xbcaf	-1.171
143	0x38c0	0.5938
144	0x3609	0.3772
145	0x3cff	1.249
146	0xba37	-0.777
147	0x391b	0.638
148	0xc162	-2.691
149	0xb2b4	-0.2095
150	0x3557	0.3337
151	0x3107	0.1571
152	0x3a83	0.814
153	0x39cb	0.724
154	0x26a1	0.0259
155	0x3518	0.3184
156	0x2e09	0.0943
157	0x3547	0.3298
158	0xb717	-0.443
159	0x9faf	-0.007504
160	0xb94b	-0.6616
161	0x3dd1	1.454
162	0x4205	3.01
163	0x366c	0.4014
164	0x3d47	1.319
165	0xbbc8	-0.9727
166	0x3985	0.69
167	0xb022	-0.1292
168	0x3e1d	1.528
169	0x38ca	0.5986
170	0xbb3d	-0.905
171	0x33ec	0.2476
172	0x3b24	0.8926
173	0x38e4	0.6113
174	0xc0b4	-2.352
175	0x3cf6	1.24
176	0x3932	0.6494
177	0x41a6	2.824
178	0x3d05	1.255
179	0x3d6b	1.3545
180	0xb74b	-0.4558
181	0x3f23	1.784
182	0xbbb4	-0.963
183	0x3c6e	1.107
184	0xb9ae	-0.71
185	0x3b4e	0.913
186	0xb350	-0.2285
187	0x3a9d	0.8267
188	0x3d26	1.287
189	0x3826	0.5186
190	0xb4b8	-0.295
191	0xb824	-0.5176
192	0x3ae1	0.86
193	0xa4e1	-0.01906
194	0x34d6	0.3022
195	0x3774	0.4658
196	0x3990	0.6953
197	0x3e19	1.524
198	0x374a	0.4556
199	0x3d67	1.351
200	0x2a8a	0.0511
201	0x2c7a	0.06995
202	0xc19e	-2.809
203	0x3c97	1.147
204	0x2f90	0.11816
205	0x3869	0.5513
206	0xb999	-0.6997
207	0xbcaa	-1.166
208	0xb784	-0.4697
209	0x1b72	0.003635
210	0xb723	-0.446
211	0x2995	0.0436
212	0x32d4	0.2134
213	0x2f94	0.1184
214	0xb4ba	-0.2954
215	0xb491	-0.2854
216	0xa943	-0.0411
217	0xbc3a	-1.057
218	0xb4d1	-0.301
219	0xbcf7	-1.241
220	0x3030	0.1309
221	0x2e13	0.0949
222	0x183e	0.002071
223	0x9e8a	-0.006386
224	0x370c	0.4404
225	0xa27b	-0.01266
226	0x3121	0.1603
227	0xbb23	-0.892
228	0xb5f7	-0.3728
229	0xb418	-0.2559
230	0xb504	-0.3135
231	0x4623	6.137
232	0xbb16	-0.8857
233	0x31b4	0.1782
234	0xbcb5	-1.177
235	0x39d3	0.728
236	0x3047	0.1337
237	0x2c05	0.0628
238	0xb88a	-0.5674
239	0x423d	3.12
240	0xb851	-0.5396
241	0xba62	-0.798
242	0x3b5f	0.9214
243	0x3422	0.2583
244	0x3e13	1.519
245	0xb9fa	-0.747
246	0xba80	-0.8125
247	0xb257	-0.1981
248	0xbba7	-0.9565
249	0x4308	3.516
250	0xadb1	-0.0889
251	0x3853	0.5405
252	0xb1bd	-0.1793
253	0x3093	0.143
254	0xba4f	-0.7886
255	0xb331	-0.2247

arith.constant8 f2 [48, 1, 1, 8]
0	0x9fb0	-0.007507
1	0x2eb0	0.1045
2	0xa4a4	-0.01813
3	0x2e3c	0.0974
4	0xa588	-0.0216
5	0x3022	0.1292
6	0xa14d	-0.01035
7	0x2792	0.02957
8	0x2872	0.03473
9	0x3129	0.1613
10	0x2c68	0.06885
11	0xa8a8	-0.03638
12	0xafc7	-0.1215
13	0xb455	-0.2708
14	0x3008	0.126
15	0x2b4a	0.05695
16	0x1927	0.002516
17	0x1b39	0.003527
18	0x94a0	-0.001129
19	0x16b1	0.001634
20	0xa4f9	-0.01942
21	0x9428	-0.001015
22	0x213e	0.01024
23	0x28a7	0.03635
24	0x1e44	0.00612
25	0x2804	0.03137
26	0x1d07	0.00491
27	0x9fdf	-0.007687
28	0xabb6	-0.06024
29	0xaaff	-0.05466
30	0x2ddc	0.09155
31	0x30cf	0.1503
32	0xa94a	-0.04132
33	0x2c50	0.0674
34	0xaa8c	-0.05115
35	0x181e	0.00201
36	0x2907	0.03928
37	0xa9ad	-0.04434
38	0xb70e	-0.441
39	0x33e2	0.2463
40	0x95f1	-0.001451
41	0x291b	0.0399
42	0x27d3	0.03056
43	0x2c65	0.06866
44	0xa121	-0.01002
45	0x2bb9	0.06033
46	0x95de	-0.001432
47	0x271f	0.02782
48	0xb067	-0.1376
49	0x0ad1	0.000208
50	0x9ce5	-0.00478
51	0x20c6	0.00932
52	0x2b5a	0.05743
53	0xa461	-0.0171
54	0x98a6	-0.00227
55	0x9da8	-0.005524
56	0x1fa1	0.00745
57	0xa9ed	-0.0463
58	0x2a03	0.04697
59	0x2424	0.01617
60	0xa418	-0.01599
61	0x2ba2	0.05963
62	0x1516	0.001242
63	0xaf60	-0.11523
64	0x99d0	-0.002838
65	0x2c04	0.06274
66	0x1557	0.001304
67	0x2a42	0.0489
68	0x9e34	-0.006058
69	0x2a3d	0.04874
70	0x1e62	0.006233
71	0x2764	0.02887
72	0x1ac0	0.003296
73	0xaea3	-0.1037
74	0xade7	-0.0922
75	0xb407	-0.2517
76	0x2899	0.03592
77	0xb44a	-0.268
78	0x2061	0.00855
79	0xad82	-0.08606
80	0x13de	0.0009604
81	0xb2e3	-0.2152
82	0xb713	-0.4421
83	0xb454	-0.2705
84	0x246e	0.0173
85	0x345a	0.272
86	0xa449	-0.01674
87	0x295e	0.04193
88	0x9acf	-0.003325
89	0x322b	0.1927
90	0x3474	0.2783
91	0x2d5c	0.08374
92	0x24cd	0.01875
93	0xb4fd	-0.3118
94	0xa5f5	-0.02327
95	0xac62	-0.0685
96	0x24e2	0.01907
97	0xb196	-0.1746
98	0xa84d	-0.0336
99	0xafd4	-0.1223
100	0xaee8	-0.1079
101	0xa0ed	-0.00962
102	0xb0b0	-0.1465
103	0xb4b7	-0.2947
104	0x2c43	0.0666
105	0x2d86	0.0863
106	0xa3a7	-0.014946
107	0xa9e8	-0.04614
108	0xac6c	-0.0691
109	0x2533	0.02031
110	0x3852	0.54
111	0xb7c8	-0.4863
112	0x2ac0	0.05273
113	0x31f9	0.1866
114	0xabcc	-0.0609
115	0x9ed8	-0.006683
116	0xaab7	-0.05246
117	0x20ad	0.00913
118	0x3479	0.2795
119	0xb219	-0.1906
120	0x2891	0.03568
121	0xacce	-0.0751
122	0x2e37	0.0971
123	0x290c	0.03943
124	0xb107	-0.1571
125	0x240c	0.01581
126	0x29db	0.04575
127	0xacb5	-0.07355
128	0x299c	0.04382
129	0x24d3	0.01884
130	0xa752	-0.0286
131	0x9ffa	-0.00779
132	0x2c9a	0.0719
133	0xa129	-0.01008
134	0xa7c0	-0.03027
135	0x24eb	0.01921
136	0x21e3	0.0115
137	0xae2b	-0.0964
138	0x2b15	0.05533
139	0x23f6	0.01555
140	0x9ed4	-0.006668
141	0x1d7e	0.005363
142	0x1d2c	0.00505
143	0x269a	0.02579
144	0x1bf0	0.003876
145	0x9ec2	-0.0066
146	0x1e17	0.005947
147	0x181e	0.00201
148	0xa643	-0.02446
149	0x9c76	-0.004356
150	0x288a	0.03546
151	0x20e2	0.00954
152	0x9d55	-0.005207
153	0x2a9e	0.0517
154	0x262c	0.02411
155	0x2cd5	0.0755
156	0xa45a	-0.017
157	0x2c1c	0.0642
158	0x0fa5	0.0004666
159	0x2835	0.03287
160	0x9e0e	-0.005913
161	0x2530	0.02026
162	0x1cbb	0.00462
163	0x9519	-0.001245
164	0x27d4	0.03058
165	0xa584	-0.02155
166	0xa931	-0.04056
167	0xa402	-0.01566
168	0x2314	0.013824
169	0xa167	-0.01055
170	0x246d	0.01729
171	0x17d4	0.001911
172	0xa680	-0.02539
173	0x24a1	0.01808
174	0x2eba	0.1051
175	0xa901	-0.0391
176	0x1a06	0.002941
177	0x28f3	0.03867
178	0xae2f	-0.0966
179	0xad5d	-0.0838
180	0x2c85	0.0706
181	0xa934	-0.04065
182	0x3297	0.2059
183	0xac81	-0.0704
184	0x2047	0.008354
185	0x343c	0.2646
186	0xb30e	-0.2205
187	0xa8bf	-0.03708
188	0x9ed6	-0.006676
189	0x2c86	0.0707
190	0xa028	-0.00812
191	0xa84d	-0.0336
192	0x3038	0.1318
193	0xa815	-0.0319
194	0x1d8e	0.005424
195	0xa049	-0.00837
196	0x2807	0.03146
197	0x1ce0	0.00476
198	0xa412	-0.0159
199	0x26e7	0.02696
200	0x8da5	-0.0003445
201	0xb275	-0.2018
202	0xa5e8	-0.02307
203	0xaeb3	-0.1047
204	0x254e	0.02072
205	0xaa30	-0.04834
206	0x2563	0.02104
207	0x17fb	0.001948
208	0x2901	0.0391
209	0xa511	-0.01979
210	0x207d	0.008766
211	0xa862	-0.03424
212	0xb2d3	-0.2133
213	0x26d5	0.02669
214	0x2d5e	0.08386
215	0xaca0	-0.07227
216	0x9cbf	-0.004635
217	0xa507	-0.01964
218	0x2052	0.00844
219	0x1ad5	0.003336
220	0xaacf	-0.0532
221	0x256f	0.02122
222	0xb18b	-0.1732
223	0x2939	0.0408
224	0xa00a	-0.00789
225	0xa4de	-0.01901
226	0x228b	0.01278
227	0x20f6	0.00969
228	0x2f40	0.1133
229	0x1890	0.002228
230	0xaf33	-0.1125
231	0x2c56	0.06775
232	0x2553	0.0208
233	0x1f76	0.007286
234	0x2623	0.02397
235	0x9502	-0.001223
236	0xaf69	-0.1158
237	0x9dd3	-0.005688
238	0xa9af	-0.0444
239	0x1e9e	0.006462
240	0xb161	-0.1681
241	0x22c3	0.01321
242	0xa9d2	-0.04547
243	0x23c3	0.01516
244	0x2708	0.02747
245	0xa489	-0.01772
246	0xa5fb	-0.02336
247	0x20e6	0.00957
248	0x2963	0.04208
249	0xad5b	-0.0837
250	0xaa6f	-0.05026
251	0xb10d	-0.1578
252	0xaf42	-0.1134
253	0xab6e	-0.05804
254	0xae90	-0.10254
255	0xae4c	-0.0984

arith.constant9 f2 [8, 1, 1, 48]
0	0x3136	0.1628
1	0xafa5	-0.11945
2	0x33e9	0.2472
3	0xae6b	-0.1003
4	0xb06a	-0.138
5	0x30e5	0.153
6	0xb063	-0.1371
7	0xa9cd	-0.04532
8	0x288f	0.0356
9	0x3540	0.3281
10	0xaf3a	-0.1129
11	0xada6	-0.08826
12	0xae4a	-0.09827
13	0x3612	0.3794
14	0xb7cd	-0.4875
15	0xb7ac	-0.4795
16	0xb50a	-0.315
17	0xa4dd	-0.019
18	0x3b66	0.925
19	0xaf92	-0.1183
20	0xb09b	-0.1439
21	0x355e	0.3354
22	0xb52a	-0.3228
23	0xaaf0	-0.0542
24	0x2ce9	0.0767
25	0x3215	0.1901
26	0x34bf	0.2966
27	0xb9f7	-0.7456
28	0xaf6c	-0.11597
29	0x390a	0.63
30	0x3704	0.4385
31	0xb6f4	-0.4346
32	0x29d5	0.04556
33	0xa2c4	-0.013214
34	0x392f	0.648
35	0x3635	0.388
36	0x288f	0.0356
37	0xb671	-0.4026
38	0xc478	-4.47
39	0x391e	0.6396
40	0x2905	0.0392
41	0xaa2f	-0.0483
42	0xaa29	-0.04813
43	0xb270	-0.2012
44	0x3d44	1.316
45	0x2de3	0.092
46	0x38ce	0.6006
47	0xb8cf	-0.601
48	0xbd34	-1.301
49	0xb404	-0.251
50	0xb55a	-0.3345
51	0x2f47	0.1137
52	0x3fed	1.981
53	0xc0bc	-2.367
54	0x3b3e	0.9053
55	0xa903	-0.03915
56	0xc0e4	-2.445
57	0xbb86	-0.9404
58	0x3317	0.2216
59	0xbb2f	-0.898
60	0x38e1	0.61
61	0xbc84	-1.129
62	0x3924	0.6426
63	0xb524	-0.3213
64	0xb653	-0.3953
65	0x4126	2.574
66	0xb590	-0.3477
67	0x38fa	0.622
68	0x3d7b	1.37
69	0x31c4	0.1802
70	0xb124	-0.1606
71	0xc072	-2.223
72	0xb438	-0.2637
73	0x3ee9	1.728
74	0xb7e8	-0.4941
75	0x301c	0.1284
76	0x3555	0.3333
77	0xb9d9	-0.731
78	0xb541	-0.3284
79	0xbad8	-0.8555
80	0xa9f6	-0.04657
81	0xb9cd	-0.725
82	0xb734	-0.4502
83	0x414d	2.65
84	0xc0f9	-2.486
85	0x36ba	0.4204
86	0xa908	-0.0393
87	0x328e	0.2048
88	0xb5a8	-0.3535
89	0x3b2b	0.896
90	0xb404	-0.251
91	0x3c25	1.036
92	0xb87d	-0.561
93	0xb969	-0.6763
94	0xab49	-0.05692
95	0xa6b6	-0.02621
96	0x3405	0.2512
97	0xaf4d	-0.1141
98	0xb9c7	-0.722
99	0xb539	-0.3264
100	0x2200	0.01172
101	0xbc55	-1.083
102	0x3b1c	0.8887
103	0x3c44	1.066
104	0xba02	-0.751
105	0xb1dc	-0.1831
106	0x40ff	2.498
107	0xbf14	-1.77
108	0x3bc9	0.973
109	0xb757	-0.4587
110	0x32e7	0.2157
111	0x3058	0.1357
112	0xbcf2	-1.236
113	0xbd90	-1.391
114	0x3924	0.6426
115	0x3fd1	1.954
116	0xc048	-2.14
117	0x3c09	1.009
118	0xb98c	-0.6934
119	0x3daa	1.416
120	0x3d8f	1.39
121	0xc01b	-2.053
122	0x3b66	0.925
123	0x2db6	0.08923
124	0x3243	0.1957
125	0xb749	-0.4553
126	0xbcd2	-1.205
127	0xb205	-0.1881
128	0xbb01	-0.8755
129	0x4084	2.258
130	0xc060	-2.188
131	0xb506	-0.314
132	0xb19b	-0.1752
133	0x3bc8	0.9727
134	0xad35	-0.08136
135	0x2dab	0.08856
136	0xbbfd	-0.9985
137	0xb7e7	-0.494
138	0xbd61	-1.345
139	0x3cca	1.197
140	0x331c	0.2222
141	0x3d31	1.298
142	0xbaff	-0.8745
143	0x384b	0.5366
144	0xb9ff	-0.7495
145	0x33e9	0.2472
146	0xb63c	-0.3896
147	0xabbf	-0.06052
148	0x33ae	0.24
149	0xbffd	-1.997
150	0x3add	0.858
151	0x3791	0.473
152	0xbccc	-1.199
153	0xbdb4	-1.426
154	0x3c7a	1.119
155	0xb7c7	-0.486
156	0x377d	0.468
157	0xb094	-0.1431
158	0x2cc9	0.07477
159	0xa5d7	-0.02281
160	0xb890	-0.5703
161	0xa5b2	-0.02225
162	0x3595	0.3489
163	0x3cb6	1.178
164	0xbd54	-1.332
165	0xa026	-0.0081
166	0xae3a	-0.0973
167	0xb1e1	-0.1837
168	0x3131	0.1622
169	0x2b70	0.0581
170	0x3781	0.469
171	0x31db	0.183
172	0xb612	-0.3794
173	0xb770	-0.4648
174	0xba58	-0.793
175	0xad5e	-0.08386
176	0xb84a	-0.536
177	0x3a17	0.761
178	0x4299	3.299
179	0xbe96	-1.646
180	0xb4bb	-0.2957
181	0x2304	0.0137
182	0xb561	-0.3362
183	0x2ffd	0.1248
184	0xb7e1	-0.4924
185	0x2b80	0.0586
186	0xb806	-0.503
187	0x3ba4	0.955
188	0x37c6	0.4858
189	0x3352	0.2288
190	0xa277	-0.01263
191	0x32a3	0.2074
192	0x3174	0.1704
193	0x2713	0.02763
194	0x380f	0.5073
195	0xbb60	-0.922
196	0x394d	0.6626
197	0xb393	-0.2367
198	0x28f8	0.03882
199	0x3766	0.4624
200	0xb4bd	-0.2961
201	0x30ae	0.1462
202	0x315a	0.1672
203	0xb1ed	-0.1852
204	0xb62f	-0.3865
205	0x3006	0.1257
206	0x3f48	1.82
207	0x3bd5	0.979
208	0xb86a	-0.552
209	0x2d6c	0.0847
210	0xbd5d	-1.341
211	0xb804	-0.502
212	0x3d2f	1.296
213	0xbc9f	-1.155
214	0x3783	0.4695
215	0x390d	0.6313
216	0xb019	-0.128
217	0xb37b	-0.2338
218	0xbcd3	-1.206
219	0x39ba	0.716
220	0xc0ef	-2.467
221	0xbd07	-1.257
222	0xb086	-0.1414
223	0x3f27	1.788
224	0xb5db	-0.366
225	0xb838	-0.5273
226	0x3704	0.4385
227	0x2bdb	0.06137
228	0xb8de	-0.6084
229	0x30bd	0.1481
230	0xb9f3	-0.7437
231	0xc012	-2.035
232	0xb690	-0.4102
233	0xb9bb	-0.7163
234	0xb696	-0.4116
235	0xb0c7	-0.1493
236	0xc184	-2.758
237	0x2d0f	0.07904
238	0xb808	-0.504
239	0x3f84	1.879
240	0xbaa4	-0.83
241	0x3816	0.5107
242	0x39a3	0.7046
243	0xb7f5	-0.4973
244	0xb5da	-0.3657
245	0xbdd6	-1.459
246	0x2f13	0.11053
247	0x34f9	0.3108
248	0xba4d	-0.7876
249	0xc06a	-2.207
250	0xba83	-0.814
251	0x407e	2.246
252	0xbadf	-0.859
253	0x3c19	1.024
254	0x38bb	0.5913
255	0x38b1	0.5864

arith.constant10 f2 [48, 1, 1, 8]
0	0x1a5f	0.00311
1	0xa81b	-0.03207
2	0xac71	-0.0694
3	0x2fdd	0.12286
4	0x2243	0.01223
5	0xaa6d	-0.0502
6	0x1e26	0.006004
7	0x14c0	0.00116
8	0x9715	-0.001729
9	0x3049	0.1339
10	0xaca6	-0.07263
11	0xaa9a	-0.05157
12	0x25bb	0.02238
13	0xaa60	-0.0498
14	0x93d7	-0.000957
15	0xa98e	-0.0434
16	0xb11b	-0.1595
17	0x24b6	0.0184
18	0x291f	0.04
19	0xabcd	-0.06094
20	0x3073	0.139
21	0x2477	0.01744
22	0xa028	-0.00812
23	0x2408	0.01575
24	0x9940	-0.002563
25	0x2148	0.010315
26	0xa41c	-0.01605
27	0xa617	-0.02379
28	0xa50b	-0.0197
29	0xa907	-0.03928
30	0x2254	0.01236
31	0x2e49	0.0982
32	0x2ec6	0.10583
33	0x20cf	0.00939
34	0xa2cf	-0.0133
35	0x20fe	0.00975
36	0xaa06	-0.04706
37	0xa4ef	-0.01927
38	0x0c30	0.0002556
39	0x9f7e	-0.007317
40	0xaacc	-0.0531
41	0x2624	0.02399
42	0xabf5	-0.06216
43	0x17f0	0.001938
44	0x316b	0.1693
45	0xac6a	-0.069
46	0xb345	-0.2272
47	0x3172	0.1702
48	0x2003	0.007835
49	0xa0b8	-0.00922
50	0xa7c8	-0.0304
51	0xa2ee	-0.013535
52	0xab09	-0.05496
53	0x2371	0.014534
54	0xad52	-0.0831
55	0xac2b	-0.0651
56	0xa63a	-0.02432
57	0x1f07	0.006863
58	0xa999	-0.04373
59	0x9eb5	-0.00655
60	0x2d51	0.08307
61	0xa411	-0.01588
62	0xaf4f	-0.1142
63	0x2cb3	0.0734
64	0x2598	0.02185
65	0x94bf	-0.001159
66	0xa287	-0.01275
67	0xa38c	-0.01474
68	0xaa7b	-0.05063
69	0x275b	0.02873
70	0x2dcc	0.0906
71	0xad53	-0.0832
72	0x250f	0.01976
73	0xa721	-0.02785
74	0x2205	0.01176
75	0x2529	0.02016
76	0xaf83	-0.1174
77	0x2888	0.0354
78	0xb08e	-0.1423
79	0xb066	-0.1375
80	0xaa48	-0.04907
81	0x1bf1	0.003878
82	0x1db1	0.005558
83	0xa0dd	-0.0095
84	0xac76	-0.0697
85	0x1cd7	0.004726
86	0x1eea	0.006752
87	0x9a69	-0.00313
88	0x2dec	0.0925
89	0xa002	-0.00783
90	0xa17f	-0.010735
91	0x2329	0.013985
92	0x28ea	0.0384
93	0x1c79	0.004368
94	0x9ca9	-0.00455
95	0x2576	0.02133
96	0xaaba	-0.05255
97	0x1641	0.001527
98	0x9b87	-0.003675
99	0x97eb	-0.001933
100	0xad51	-0.08307
101	0xa10f	-0.00988
102	0x2055	0.00846
103	0xa54f	-0.02074
104	0x9c2b	-0.00407
105	0xaaf5	-0.05435
106	0x2176	0.010666
107	0xa4f4	-0.01935
108	0xa2df	-0.01342
109	0xa0ef	-0.009636
110	0x8b18	-0.0002165
111	0x201c	0.008026
112	0x9a87	-0.003187
113	0x2973	0.04257
114	0xa686	-0.02548
115	0x9068	-0.000538
116	0x1c23	0.00404
117	0x20de	0.00951
118	0x8d8c	-0.0003386
119	0x98a7	-0.002272
120	0x2960	0.042
121	0x9c3d	-0.00414
122	0x29a3	0.04404
123	0x272a	0.02798
124	0xae70	-0.1006
125	0x2c4a	0.067
126	0x30d5	0.151
127	0xb0c4	-0.1489
128	0x1a49	0.003069
129	0xaeb5	-0.1048
130	0x3392	0.2366
131	0x2e07	0.0942
132	0x200f	0.00793
133	0xb097	-0.1434
134	0x9982	-0.00269
135	0xa905	-0.0392
136	0x2501	0.01955
137	0x1803	0.001959
138	0x9e07	-0.005886
139	0x225e	0.012436
140	0x2e45	0.09796
141	0x1e4a	0.00614
142	0xa036	-0.008224
143	0x0def	0.0003622
144	0xa252	-0.012344
145	0x2096	0.00896
146	0xa518	-0.0199
147	0xa05c	-0.008514
148	0x2c3c	0.06616
149	0x9fd9	-0.007664
150	0x2aec	0.05408
151	0x25c8	0.02258
152	0x1aaa	0.003254
153	0x2c61	0.0684
154	0x1fa7	0.007473
155	0x2c21	0.0645
156	0xa5b1	-0.02223
157	0x2c7d	0.0701
158	0x1ed0	0.006653
159	0x2949	0.0413
160	0x22a0	0.01294
161	0xa70d	-0.02754
162	0x8a4e	-0.0001924
163	0x2030	0.00818
164	0xac2e	-0.0653
165	0x2a11	0.0474
166	0x1d2e	0.00506
167	0x2885	0.0353
168	0x2a82	0.05084
169	0x1e6a	0.006264
170	0x9a6a	-0.003132
171	0x0b5d	0.0002247
172	0x2e12	0.09485
173	0x9715	-0.001729
174	0x9ed1	-0.006657
175	0x265b	0.02483
176	0x1e3b	0.006084
177	0xaf26	-0.1117
178	0x2473	0.01738
179	0xa9a2	-0.044
180	0x2138	0.01019
181	0xaac6	-0.05292
182	0x99e9	-0.002886
183	0xa114	-0.00992
184	0x2069	0.00861
185	0x2c9f	0.0722
186	0x275e	0.02878
187	0xa683	-0.02544
188	0x27a1	0.0298
189	0xb0ca	-0.1497
190	0xa0a8	-0.009094
191	0xad3f	-0.082
192	0x2918	0.0398
193	0x2610	0.02368
194	0xaa82	-0.05084
195	0xa93b	-0.04086
196	0x9eae	-0.006523
197	0x2e2f	0.0966
198	0x3882	0.5635
199	0x2e89	0.1021
200	0xa081	-0.0088
201	0x9cd1	-0.004704
202	0x9e29	-0.006016
203	0x9d69	-0.005283
204	0x2793	0.02959
205	0x9f34	-0.007034
206	0x931c	-0.000868
207	0x083d	0.0001293
208	0xad81	-0.086
209	0xa437	-0.01646
210	0x1ae7	0.00337
211	0x1ee6	0.006737
212	0x21c3	0.01125
213	0x214f	0.01037
214	0x1c54	0.004227
215	0x2083	0.00881
216	0xa777	-0.02916
217	0xa92a	-0.04034
218	0x252d	0.02022
219	0x27ed	0.03096
220	0x2cb9	0.0738
221	0x2b33	0.05624
222	0x9bb9	-0.00377
223	0x24e9	0.01918
224	0xa820	-0.03223
225	0xabc8	-0.0608
226	0x25d6	0.0228
227	0x2ac4	0.05286
228	0x2e50	0.09863
229	0x2d39	0.0816
230	0xa090	-0.00891
231	0x28bc	0.037
232	0xa2f2	-0.013565
233	0x29fa	0.0467
234	0x2419	0.016
235	0x296c	0.04236
236	0xa4b9	-0.01845
237	0x26ec	0.02704
238	0x1905	0.00245
239	0x1df6	0.00582
240	0xa4bb	-0.01848
241	0x9c9f	-0.004513
242	0x980e	-0.00198
243	0x1ff7	0.00778
244	0x298a	0.04327
245	0x20ed	0.00962
246	0x84fc	-7.606e-05
247	0x8b59	-0.0002242
248	0x3086	0.1414
249	0x2919	0.03983
250	0x2a56	0.0495
251	0xae1e	-0.0956
252	0x22b7	0.013115
253	0x255a	0.0209
254	0xa2e3	-0.01345
255	0x9a27	-0.003004

arith.constant11 f2 [16, 1, 1, 48]
0	0x33be	0.242
1	0x387a	0.5596
2	0x34d3	0.3015
3	0xbc8d	-1.138
4	0xac29	-0.065
5	0x35bb	0.3582
6	0xb8f1	-0.6177
7	0x376c	0.4639
8	0xb6d9	-0.428
9	0x244b	0.01677
10	0xb3b0	-0.2402
11	0x37ca	0.4868
12	0x36d1	0.426
13	0x3cbf	1.187
14	0x3637	0.3884
15	0x24df	0.01903
16	0x3c12	1.018
17	0xb8a4	-0.58
18	0xbd0a	-1.26
19	0x36d8	0.4277
20	0x3d70	1.359
21	0xb973	-0.681
22	0x43c5	3.885
23	0xb84f	-0.5386
24	0xb96c	-0.6777
25	0x2c93	0.0715
26	0xb035	-0.1315
27	0xb7e9	-0.4944
28	0x38c4	0.5957
29	0x3857	0.5425
30	0xb8c7	-0.597
31	0x2ff5	0.1243
32	0xace1	-0.07623
33	0x31b4	0.1782
34	0x4399	3.799
35	0xb894	-0.5723
36	0x40f8	2.484
37	0xb4da	-0.3032
38	0x391a	0.6377
39	0x3dcd	1.45
40	0x2f7f	0.1171
41	0x2614	0.02374
42	0xb124	-0.1606
43	0xb4e8	-0.3066
44	0x3777	0.4666
45	0x3a4f	0.7886
46	0xbb4a	-0.911
47	0xb88c	-0.5684
48	0x3776	0.4663
49	0xb1d0	-0.1816
50	0x340e	0.2534
51	0xbccc	-1.199
52	0x383f	0.531
53	0x33d2	0.2444
54	0x2909	0.03934
55	0x2ba1	0.0596
56	0x9e1f	-0.005978
57	0xb00f	-0.1268
58	0x38fd	0.6235
59	0x4465	4.395
60	0x417d	2.744
61	0xb603	-0.3757
62	0x30e3	0.1527
63	0x2a2f	0.0483
64	0xb879	-0.559
65	0xa81e	-0.03217
66	0x30a5	0.1451
67	0x3178	0.1709
68	0xb862	-0.548
69	0xbe2a	-1.541
70	0xb9b1	-0.7114
71	0x36c2	0.4224
72	0x316f	0.1698
73	0x297a	0.0428
74	0x3843	0.5327
75	0x3918	0.6367
76	0xbbab	-0.9585
77	0xb3ca	-0.2434
78	0xb831	-0.524
79	0xc360	-3.688
80	0x352f	0.324
81	0x3052	0.135
82	0xb6af	-0.4177
83	0xb83c	-0.5293
84	0x35fb	0.3738
85	0x4354	3.664
86	0xb81d	-0.514
87	0xb9a5	-0.7056
88	0x3940	0.6562
89	0x32b8	0.21
90	0x3009	0.1261
91	0x356e	0.3394
92	0xb180	-0.1719
93	0x34b3	0.2937
94	0x2ccf	0.07513
95	0xba80	-0.8125
96	0xb6d1	-0.426
97	0x332a	0.2239
98	0x3d53	1.331
99	0x39b5	0.7134
100	0x3a3c	0.7793
101	0x3538	0.3262
102	0x40c4	2.383
103	0x3c24	1.035
104	0xc09b	-2.303
105	0xbd11	-1.267
106	0x3de1	1.47
107	0x346b	0.2761
108	0x3e04	1.504
109	0xbc72	-1.111
110	0x3d69	1.353
111	0x3d7e	1.373
112	0xb9a9	-0.7075
113	0xbbe7	-0.988
114	0x4202	3.004
115	0x3b47	0.9097
116	0xb854	-0.541
117	0x3a68	0.801
118	0x3a2a	0.7705
119	0x315a	0.1672
120	0xb49b	-0.2878
121	0x3b15	0.8853
122	0x3cbc	1.184
123	0x38dc	0.6074
124	0xb943	-0.6577
125	0xb638	-0.3887
126	0xbe05	-1.505
127	0x376d	0.464
128	0xbf3d	-1.81
129	0xba43	-0.7827
130	0x2cd8	0.0757
131	0xbd4e	-1.326
132	0x391c	0.6387
133	0xbac9	-0.848
134	0xbc00	-1.0
135	0x39c7	0.722
136	0xbcaf	-1.171
137	0xbb43	-0.9077
138	0x3d14	1.27
139	0x3e27	1.538
140	0xbcd4	-1.207
141	0xbe26	-1.537
142	0xbf27	-1.788
143	0xb8d6	-0.6045
144	0xb7dd	-0.4915
145	0x41e2	2.941
146	0x3446	0.267
147	0x3afc	0.873
148	0xbb31	-0.899
149	0x3490	0.2852
150	0x3202	0.1877
151	0xb6c4	-0.4229
152	0x2609	0.02357
153	0x1ae6	0.003368
154	0x346b	0.2761
155	0x350a	0.315
156	0x3b0e	0.882
157	0x3ed0	1.703
158	0x3859	0.5435
159	0x31c6	0.1804
160	0x3f55	1.833
161	0x3dcd	1.45
162	0xb430	-0.2617
163	0x3bba	0.966
164	0xc00a	-2.02
165	0xb8d7	-0.605
166	0x3855	0.5415
167	0xbdce	-1.451
168	0xac24	-0.0647
169	0xb786	-0.4702
170	0x385a	0.544
171	0x3d62	1.346
172	0xbfc3	-1.94
173	0x3e49	1.571
174	0x4053	2.162
175	0x3406	0.2515
176	0xbac9	-0.848
177	0x3504	0.3135
178	0xb588	-0.3457
179	0x3f6b	1.8545
180	0x3333	0.225
181	0xb075	-0.1393
182	0x3b2e	0.8975
183	0xbf5b	-1.839
184	0x3b93	0.947
185	0x3d43	1.315
186	0x344e	0.269
187	0x3726	0.4468
188	0x3bf1	0.9927
189	0x33c0	0.2422
190	0xb722	-0.4458
191	0x3de2	1.471
192	0x36f7	0.4353
193	0x3ee0	1.719
194	0xb03c	-0.1323
195	0xc19b	-2.803
196	0x370e	0.441
197	0x312f	0.162
198	0xa824	-0.03235
199	0xa960	-0.042
200	0x2df4	0.093
201	0xbaa4	-0.83
202	0x3974	0.6816
203	0xbb35	-0.901
204	0x3103	0.1566
205	0x39b1	0.7114
206	0xb256	-0.198
207	0xba69	-0.8013
208	0x39d3	0.728
209	0x3c77	1.116
210	0x3377	0.2333
211	0x2da4	0.08813
212	0x42aa	3.332
213	0x3d3c	1.309
214	0x3aad	0.8345
215	0xb75e	-0.4604
216	0x35aa	0.354
217	0x3a31	0.774
218	0x32a9	0.2081
219	0xc39f	-3.81
220	0x428d	3.275
221	0xb606	-0.3765
222	0x3552	0.3325
223	0xb3f4	-0.2485
224	0xb85b	-0.5444
225	0xb0ef	-0.1542
226	0xbfda	-1.963
227	0x32ee	0.2166
228	0x29cd	0.04532
229	0xaecb	-0.10614
230	0x3309	0.2198
231	0xbc90	-1.141
232	0x3f84	1.879
233	0x3587	0.3455
234	0x3de8	1.477
235	0x3e52	1.58
236	0xaa7b	-0.05063
237	0xb6b5	-0.4192
238	0xb6ed	-0.4329
239	0xadb8	-0.08936
240	0xad83	-0.0861
241	0xc068	-2.203
242	0xaf63	-0.1154
243	0x3482	0.2817
244	0xba4a	-0.786
245	0xb165	-0.1686
246	0x3010	0.127
247	0xafb6	-0.1205
248	0x38b2	0.587
249	0xb622	-0.3833
250	0x37e6	0.4937
251	0x2555	0.02083
252	0x3761	0.4612
253	0x38cf	0.601
254	0x3c74	1.113
255	0xb898	-0.574

arith.constant12 f2 [96, 1, 1, 16]
0	0x2edc	0.1072
1	0x0f2c	0.0004377
2	0x3562	0.3364
3	0xa592	-0.02176
4	0x2ba7	0.05978
5	0x28e7	0.0383
6	0xb618	-0.3809
7	0xb647	-0.3923
8	0x3168	0.169
9	0xad53	-0.0832
10	0x328f	0.205
11	0xb097	-0.1434
12	0x9e87	-0.006374
13	0xa482	-0.01761
14	0xa967	-0.0422
15	0xa754	-0.02863
16	0x27db	0.03069
17	0x0e27	0.0003755
18	0x1e95	0.006428
19	0x25d9	0.02284
20	0xa248	-0.01227
21	0x8f40	-0.0004425
22	0x1847	0.002089
23	0x1999	0.002733
24	0xabdd	-0.06143
25	0x1d5d	0.005238
26	0x21b0	0.01111
27	0x223c	0.01218
28	0x24ec	0.01923
29	0x254b	0.02068
30	0x2925	0.0402
31	0x249d	0.01802
32	0xa31e	-0.0139
33	0x1dd8	0.005707
34	0x21c4	0.01126
35	0xa333	-0.01406
36	0x9935	-0.002542
37	0x1dc1	0.00562
38	0xa102	-0.00978
39	0xa22b	-0.01205
40	0x25c8	0.02258
41	0x150a	0.00123
42	0x0078	7.15e-06
43	0xa4f9	-0.01942
44	0x9555	-0.001302
45	0x9751	-0.001786
46	0x2386	0.014694
47	0x24da	0.01895
48	0x2eb1	0.10455
49	0xa78d	-0.0295
50	0x9710	-0.001724
51	0x1ecc	0.006638
52	0x1fdc	0.007675
53	0x9a83	-0.00318
54	0xa854	-0.0338
55	0x2ceb	0.07684
56	0x2778	0.02917
57	0x2c19	0.064
58	0x2c61	0.0684
59	0xa8ec	-0.03845
60	0xa18d	-0.01084
61	0x28d8	0.03784
62	0x2c81	0.0704
63	0xab9e	-0.0595
64	0x22b8	0.01312
65	0x26a1	0.0259
66	0xa8c8	-0.03735
67	0x24c3	0.0186
68	0x9bf8	-0.003891
69	0x9eac	-0.006516
70	0xa745	-0.0284
71	0xa438	-0.01648
72	0xa613	-0.02373
73	0xa0c6	-0.00932
74	0x2317	0.01385
75	0x2f89	0.11774
76	0xa5cd	-0.02266
77	0x2496	0.01791
78	0x2834	0.03284
79	0x2801	0.03128
80	0x201b	0.00802
81	0x1bfe	0.003902
82	0xa76b	-0.02898
83	0x9c93	-0.004467
84	0xa280	-0.012695
85	0x23b6	0.01506
86	0xa3a1	-0.0149
87	0xa7da	-0.03067
88	0xa340	-0.01416
89	0x9c3b	-0.00413
90	0xa5c5	-0.02254
91	0x2467	0.0172
92	0x9e11	-0.005924
93	0xa72e	-0.02805
94	0xa449	-0.01674
95	0x2536	0.02036
96	0x2f81	0.11725
97	0x23c2	0.01515
98	0x2765	0.02888
99	0xa327	-0.01397
100	0x2139	0.0102
101	0xac6d	-0.06915
102	0xa175	-0.01066
103	0x2443	0.01665
104	0xabf5	-0.06216
105	0xa666	-0.025
106	0xa75b	-0.02873
107	0xae4e	-0.0985
108	0x2336	0.014084
109	0x225d	0.01243
110	0xac6d	-0.06915
111	0x2c96	0.07166
112	0x9df3	-0.00581
113	0x1d7c	0.005356
114	0xa1bf	-0.01122
115	0x9e6b	-0.006268
116	0x99b8	-0.002792
117	0x9464	-0.001072
118	0x1a79	0.00316
119	0xa478	-0.01746
120	0x22c9	0.01325
121	0x23a6	0.01494
122	0x9d81	-0.005375
123	0xa0b7	-0.00921
124	0x2502	0.01956
125	0x2e57	0.09906
126	0x172d	0.001752
127	0x9ca0	-0.004517
128	0x2f50	0.11426
129	0xa657	-0.02477
130	0x2285	0.01273
131	0xa4ec	-0.01923
132	0xa810	-0.03174
133	0x9dc4	-0.00563
134	0xa0d1	-0.00941
135	0xa2a5	-0.01298
136	0x2baa	0.05988
137	0x28b7	0.03683
138	0x1ee8	0.006744
139	0x293b	0.04086
140	0x9ff6	-0.007774
141	0xa5be	-0.02243
142	0x2603	0.02348
143	0x279c	0.02972
144	0x2477	0.01744
145	0x237d	0.014626
146	0xaf28	-0.1118
147	0x212c	0.0101
148	0xa3ad	-0.01499
149	0x298d	0.04337
150	0xaa02	-0.04694
151	0xb0d7	-0.1512
152	0xadb2	-0.089
153	0x27a6	0.02988
154	0xafcd	-0.1219
155	0x1da9	0.005527
156	0xacac	-0.073
157	0xa9aa	-0.04425
158	0x2ee6	0.1078
159	0x26a3	0.02592
160	0x2bb1	0.0601
161	0xab01	-0.05472
162	0xad4c	-0.08276
163	0x2edc	0.1072
164	0x1d0f	0.00494
165	0xaf6d	-0.116
166	0xaa08	-0.04712
167	0x255b	0.02092
168	0xa6cb	-0.02654
169	0xac87	-0.07074
170	0x2f53	0.11444
171	0x2d75	0.08527
172	0x248e	0.01779
173	0x25ca	0.02261
174	0x2339	0.01411
175	0xb103	-0.1566
176	0x9c46	-0.004173
177	0x182a	0.002033
178	0xa994	-0.04358
179	0xa42b	-0.01628
180	0x169c	0.001614
181	0x1fe5	0.00771
182	0xa064	-0.008575
183	0xab2c	-0.05603
184	0xa5da	-0.02286
185	0x253b	0.02043
186	0xa87b	-0.035
187	0x0fa4	0.0004663
188	0x327f	0.203
189	0xa8ae	-0.03656
190	0x2778	0.02917
191	0xa196	-0.01091
192	0xaaaa	-0.05206
193	0xa457	-0.01695
194	0x9687	-0.001594
195	0xa0e5	-0.00956
196	0x156c	0.001324
197	0xa2c3	-0.01321
198	0xa4b1	-0.01833
199	0x1ede	0.006706
200	0xa3e4	-0.01541
201	0x25f1	0.02321
202	0xa556	-0.02084
203	0xa9b9	-0.0447
204	0xa0aa	-0.00911
205	0x1c25	0.004047
206	0xaa85	-0.05093
207	0xa898	-0.0359
208	0x9f2f	-0.007015
209	0xa437	-0.01646
210	0x1ab3	0.003271
211	0x210e	0.00987
212	0x9773	-0.001819
213	0x206e	0.00865
214	0x0207	3.093e-05
215	0x23d8	0.01532
216	0x20fc	0.009735
217	0x1d1b	0.004986
218	0x9eea	-0.006752
219	0xa84d	-0.0336
220	0xa062	-0.00856
221	0xa0f5	-0.00968
222	0x27ae	0.03
223	0xaa3e	-0.04877
224	0xabf9	-0.0623
225	0xab54	-0.05725
226	0xa44d	-0.0168
227	0xa9c7	-0.04514
228	0x2c52	0.0675
229	0xa510	-0.01978
230	0x1eec	0.00676
231	0xa3ac	-0.014984
232	0x297e	0.0429
233	0xab7c	-0.05847
234	0xac46	-0.0668
235	0x3008	0.126
236	0xabb8	-0.0603
237	0x293a	0.04083
238	0xb2a0	-0.207
239	0x2f76	0.1166
240	0xad73	-0.08514
241	0x9b35	-0.00352
242	0x1feb	0.007732
243	0x163c	0.001522
244	0x941d	-0.001004
245	0x2c63	0.06854
246	0x1d7a	0.00535
247	0x22ec	0.01352
248	0x2c74	0.0696
249	0x25d7	0.02281
250	0x9224	-0.0007496
251	0xa62d	-0.02412
252	0x18e8	0.002396
253	0xa060	-0.008545
254	0x2819	0.032
255	0x2dbb	0.08954

arith.constant13 f2 [16, 1, 1, 96]
0	0xb5e7	-0.369
1	0x39e7	0.738
2	0xac82	-0.07043
3	0xb848	-0.535
4	0xb0b5	-0.1471
5	0xa2f6	-0.013596
6	0x3453	0.2703
7	0xb725	-0.4465
8	0xa826	-0.0324
9	0x2976	0.04266
10	0x3503	0.3132
11	0xb30a	-0.22
12	0x31e3	0.184
13	0xba5f	-0.7964
14	0xb5ce	-0.3628
15	0x3561	0.3362
16	0xa847	-0.03342
17	0xb86c	-0.5527
18	0xacc1	-0.0743
19	0xbb22	-0.8916
20	0xb69c	-0.413
21	0x3044	0.1333
22	0xb068	-0.1377
23	0xb171	-0.17
24	0xadc6	-0.0902
25	0x163b	0.001521
26	0x3217	0.1903
27	0xa8d4	-0.03772
28	0x2954	0.04163
29	0x2d13	0.0793
30	0x3431	0.262
31	0x2630	0.02417
32	0x3776	0.4663
33	0x2f7d	0.117
34	0x2f28	0.1118
35	0xae7c	-0.1013
36	0x3211	0.1896
37	0x3658	0.3965
38	0x2e85	0.10187
39	0xb9c0	-0.7188
40	0x3279	0.2023
41	0xa4a9	-0.0182
42	0xae0c	-0.0945
43	0xae7f	-0.1015
44	0x353e	0.3276
45	0x28d1	0.03763
46	0x1db6	0.005577
47	0x308f	0.1425
48	0xade1	-0.09186
49	0x2cc7	0.07465
50	0x36af	0.4177
51	0x33aa	0.2395
52	0xaa65	-0.04996
53	0xb734	-0.4502
54	0xaf26	-0.1117
55	0x3643	0.3914
56	0xa615	-0.02376
57	0x2ff1	0.1241
58	0x2621	0.02394
59	0x2d49	0.0826
60	0xb828	-0.5195
61	0xac74	-0.0696
62	0x2b14	0.0553
63	0xb449	-0.2678
64	0x2dfc	0.0935
65	0xaff0	-0.124
66	0x2a8d	0.05118
67	0xa327	-0.01397
68	0xad5d	-0.0838
69	0xae2c	-0.09644
70	0x3a3b	0.779
71	0xbb69	-0.9263
72	0xb25e	-0.199
73	0xbb3c	-0.9043
74	0xba8b	-0.818
75	0x2e9c	0.1033
76	0x297e	0.0429
77	0x3955	0.6665
78	0x2f80	0.1172
79	0x3579	0.342
80	0xb012	-0.1272
81	0xbaeb	-0.8647
82	0x3880	0.5625
83	0xb48c	-0.2842
84	0xb63e	-0.3901
85	0x338a	0.2356
86	0x3039	0.132
87	0x3407	0.2517
88	0xa7e5	-0.03084
89	0xb61a	-0.3813
90	0xab2b	-0.056
91	0xb7b0	-0.4805
92	0xba00	-0.75
93	0x328e	0.2048
94	0xb6e4	-0.4307
95	0x3544	0.329
96	0xb2b5	-0.2096
97	0xb14d	-0.1656
98	0x317e	0.1716
99	0x377e	0.4683
100	0xb4e1	-0.305
101	0xbb7e	-0.9365
102	0xb103	-0.1566
103	0xb3a4	-0.2388
104	0xa81c	-0.0321
105	0xb7d0	-0.4883
106	0xab1b	-0.0555
107	0xbe8e	-1.639
108	0x358d	0.347
109	0xb92d	-0.647
110	0xb151	-0.1661
111	0xb25e	-0.199
112	0xb0e0	-0.1523
113	0xb071	-0.1388
114	0xac35	-0.06573
115	0xac22	-0.0646
116	0xba10	-0.758
117	0x3164	0.1685
118	0xb49a	-0.2876
119	0x322a	0.1926
120	0xb1fc	-0.187
121	0x3089	0.1417
122	0x30e0	0.1523
123	0xaf79	-0.11676
124	0xab8b	-0.05893
125	0x28fe	0.039
126	0x3349	0.2277
127	0x3613	0.3796
128	0x2823	0.03232
129	0xb2cf	-0.2128
130	0x3898	0.574
131	0xb32d	-0.2242
132	0xabb2	-0.06012
133	0xb339	-0.2257
134	0x2ce8	0.07666
135	0x31a4	0.1763
136	0x3ced	1.231
137	0x33f8	0.249
138	0xb9b5	-0.7134
139	0x3b18	0.8867
140	0x24c7	0.01866
141	0x28a9	0.0364
142	0xbbaa	-0.958
143	0x3c49	1.071
144	0x34f7	0.3103
145	0x38de	0.6084
146	0xb5af	-0.3552
147	0x3e43	1.565
148	0xbfea	-1.979
149	0x385e	0.546
150	0x3975	0.682
151	0xae09	-0.0943
152	0xb061	-0.1368
153	0x3813	0.5093
154	0x9c25	-0.004047
155	0x3906	0.628
156	0xb8bf	-0.5933
157	0x2f1c	0.1111
158	0xb2bb	-0.2103
159	0x3333	0.225
160	0x3730	0.4492
161	0x2d3d	0.08185
162	0xb756	-0.4585
163	0x3072	0.1389
164	0xa569	-0.02113
165	0xb104	-0.1567
166	0x359e	0.351
167	0xb8e7	-0.613
168	0xac88	-0.0708
169	0xb5fa	-0.3735
170	0xb5b9	-0.3577
171	0xb844	-0.533
172	0xbddf	-1.468
173	0xb577	-0.3416
174	0x25a9	0.02211
175	0xab76	-0.0583
176	0x2ea8	0.104
177	0xb5e2	-0.3677
178	0xb2ab	-0.2084
179	0x281b	0.03207
180	0xb6e5	-0.431
181	0x30ae	0.1462
182	0x2d82	0.08606
183	0xb908	-0.629
184	0x3a4c	0.787
185	0xaf1d	-0.11115
186	0x3ad3	0.853
187	0x360b	0.3777
188	0x32d2	0.2131
189	0x2671	0.02516
190	0xb586	-0.3452
191	0x3760	0.461
192	0xb9c8	-0.7227
193	0xb7d2	-0.4888
194	0x3a6b	0.8022
195	0x30bd	0.1481
196	0xbc5d	-1.091
197	0x35a6	0.353
198	0xb10d	-0.1578
199	0xaca2	-0.0724
200	0xbcb6	-1.178
201	0xb4b8	-0.295
202	0x3057	0.1356
203	0xb419	-0.256
204	0xbcee	-1.232
205	0xac54	-0.0676
206	0xb4c6	-0.2983
207	0x3501	0.3127
208	0x3635	0.388
209	0xb84d	-0.5376
210	0x9820	-0.002014
211	0xba69	-0.8013
212	0x385b	0.5444
213	0xb3f2	-0.2483
214	0x3d65	1.349
215	0x3c8e	1.139
216	0xadfb	-0.09344
217	0x992c	-0.002525
218	0xb651	-0.3948
219	0x3163	0.1683
220	0x2a19	0.04764
221	0x3ca6	1.162
222	0x37a1	0.4768
223	0xb4c8	-0.2988
224	0xbb24	-0.8926
225	0x3bf0	0.992
226	0xb94d	-0.6626
227	0xbbae	-0.96
228	0x35c5	0.3606
229	0xbbe7	-0.988
230	0x34de	0.3042
231	0x38aa	0.583
232	0x396e	0.6787
233	0xb9e4	-0.7363
234	0x3167	0.1688
235	0xbcdc	-1.215
236	0xb259	-0.1984
237	0x348d	0.2844
238	0xb209	-0.1886
239	0x37fe	0.4995
240	0x394c	0.662
241	0x33e5	0.2467
242	0xb180	-0.1719
243	0x3cc4	1.191
244	0xa266	-0.0125
245	0x3dba	1.432
246	0x38e2	0.6104
247	0xb195	-0.1744
248	0x365b	0.3972
249	0x394c	0.662
250	0x3482	0.2817
251	0xba11	-0.7583
252	0x3abe	0.843
253	0xb4ff	-0.3123
254	0xb76e	-0.4644
255	0xb0ea	-0.1536
